model/movie_recommendation_model.pth (torch, 35733 bytes, 6 tensors)

emb_layer_genres.weight f4 [18, 20]
-0.23584418 0.058773436 0.20724061 -0.10712981 0.6444028 -0.3765566 0.0895186 -0.030505499
-0.15105456 -0.34878495 -0.107521385 0.050163582 -0.39975426 0.19699146 0.05397114 -0.33931956
0.6120069 0.2717167 -0.39572987 0.21206072 -0.35755998 0.04403214 1.178682 0.12817907
-0.5557929 0.65688455 -0.060519874 -0.73511815 -0.0947898 -1.3054914 0.26158276 -1.8499174
-1.7175008 -0.5512312 -0.06722058 0.21710432 -1.3474959 0.35906693 0.55969673 -0.43148884
-0.44793597 -0.13045608 -0.2965908 0.012944438 -0.3302757 0.11047189 0.44385195 -1.7226468
0.35102436 -0.1080092 0.83999616 -0.39717463 0.5672991 -0.6001694 0.7434041 0.36491898
0.76764613 1.4157736 0.46187964 1.3708687 0.048329346 0.12343717 1.0219151 0.5441685
-1.0413146 0.19605824 0.27504954 0.044985864 0.10508435 -0.14195801 0.13221784 0.44541582
-0.6948431 -0.3830967 0.28930774 -0.64464325 0.2528031 0.8197418 0.21307637 -0.5394327
-0.7429081 0.10704359 0.43230438 0.26870835 -0.13467313 0.4564499 0.06716475 -0.31915513
-0.34323484 -0.20468539 -0.13508135 -0.24649614 -0.8791968 0.09202535 0.37319127 -1.4363562
0.5972119 -0.050270155 -0.31210998 0.9033609 -0.60616 -0.21871106 0.6393962 -1.0861773
-0.03396541 0.44919008 -0.585448 -0.20843276 0.05507669 -0.47742188 0.48136404 -1.0758152
-1.0676864 0.21329197 1.3304132 0.2269704 -0.033172794 -0.15422273 0.89034665 -0.19201265
1.6911118 -1.3363994 0.37198448 -0.78447634 0.30058065 0.15834941 2.11776 0.36671254
-0.56371266 -1.2090682 -0.03770377 -0.82678676 -0.31503448 0.8542793 0.078723155 -1.2264348
1.4787369 -0.2589323 -0.33200076 0.543946 0.25593886 1.5978689 -0.667691 1.0217264
0.076063685 0.09573433 -0.23154987 -0.6962977 -0.91418886 -0.7961136 -0.7275211 -0.098480836
-1.2838868 0.025357863 0.22790694 -2.025385 -0.13145463 -0.2719114 -0.24618673 -0.10176361
0.4407597 -0.95471925 1.7449056 1.009271 -0.9119827 0.8224235 0.109904885 0.013290286
-1.3946496 0.6134224 -0.20005748 -2.0588174 -0.29976654 0.1145118 0.31814906 -0.54327977
-0.31766942 -0.9787314 -0.637694 0.48231742 -0.029203132 -0.074788146 1.2951121 -0.43793476
0.796965 -0.6985726 -0.35838535 -0.54886734 -1.0495083 -0.63814586 0.75204855 -0.88765997
0.18393773 0.18633065 -0.18800846 -0.445872 -0.67276245 -0.6186376 -0.6020806 1.1727
0.6178284 -2.542427 1.6458801 -0.50730896 1.1247641 -0.7442834 0.19448708 0.25319207
0.41785356 -0.60742974 0.5843337 -0.16286239 -2.4592974 -0.62901527 0.23933187 -2.8642063
0.5373903 1.7338998 0.38325024 -0.40565032 0.011948429 1.5271376 -0.01792646 -0.85160065
-0.2245649 0.5653496 -1.0113616 -0.029362263 -1.9338162 -0.2952388 1.0379884 0.5072623
-1.7664059 -0.08705441 -0.73709774 -1.3810813 0.6856668 1.1181064 -1.1809763 0.5278925
1.8116279 -0.74623555 0.7104512 1.1764482 -0.03011503 -0.29905754 0.1012822 -2.0078251
-0.84525234 -0.72447014 0.03572119 -0.30484185 -0.7354318 -0.23763497 -0.42501828 -1.4903501
00000000: 2381 71be 6abc 703d e236 543e e066 dbbd
00000010: 95f7 243f 07cc c0be 8755 b73d abe6 f9bc
00000020: 0cae 1abe f193 b2be 2c34 dcbd 5478 4d3d
00000030: 97ac ccbe 21b8 493e d810 5d3d 4bbb adbe
00000040: 7cac 1c3f 741e 8b3e 1b9d cabe 7226 593e
00000050: 1a12 b7be 0c5b 343d 0ddf 963f 6041 033e
00000060: 7248 0ebf 9629 283f b0e3 77bd b430 3cbf
00000070: 2821 c2bd 581a a7bf 2dee 853e 18ca ecbf
00000080: 11d7 dbbf 7d1d 0dbf f2aa 89bd 9850 5e3e
00000090: bf7a acbf 9fd7 b73e 4948 0f3f 1bec dcbe
000000a0: dd57 e5be 4796 05be c0da 97be e814 543c
000000b0: e619 a9be 163f e23d 9040 e33e b17f dcbf
000000c0: 77b9 b33e ed33 ddbd fd09 573f 795a cbbe
000000d0: 843a 113f b4a4 19bf bb4f 3e3f a9d6 ba3e
000000e0: 7584 443f 1238 b53f 7d7b ec3e a078 af3f
000000f0: fef4 453d a1cc fc3d 1dce 823f a04e 0b3f
00000100: cc49 85bf 7ec3 483e 4bd3 8c3e 1943 383d
00000110: 7736 d73d 715d 11be 1d64 073e 8b0d e43e
00000120: 3de1 31bf 4025 c4be 2520 943e 5707 25bf
00000130: 686f 813e 99da 513f b130 5a3e 4318 0abf
00000140: 3a2f 3ebf ab39 db3d 0057 dd3e 2494 893e
00000150: c1e7 09be cdb3 e93e ac8d 893d 4d68 a3be
00000160: 7abc afbe 0c99 51be c452 0abe 7c69 7cbe
00000170: 0b13 61bf c977 bc3d ed12 bf3e 85da b7bf
00000180: e1e2 183f 14e8 4dbd e1cc 9fbe a942 673f
00000190: 4d2d 1bbf cbf5 5fbe 78af 233f dc07 8bbf
000001a0: 501f 0bbd 3efc e53e ecdf 15bf 666f 55be
000001b0: 1898 613d a470 f4be 5975 f63e 50b4 89bf
000001c0: f3a9 88bf 3669 5a3e fb4a aa3f ee6a 683e
000001d0: 32e0 07bd 90ec 1dbe c2ed 633f f79e 44be
000001e0: 5a76 d83f 230f abbf c074 be3e 71d3 48bf
000001f0: b5e5 993e 5926 223e 6189 0740 bfc1 bb3e
00000200: 794f 10bf bfc2 9abf 456f 1abd 4ca8 53bf
00000210: 334c a1be 0cb2 5a3f 9b39 a13d d1fb 9cbf
00000220: 4047 bd3f c692 84be 01fc a9be 0c40 0b3f
00000230: 6b0a 833e f886 cc3f cced 2abf eec7 823f
00000240: 47c7 9b3d 5c10 c43d 691b 6dbe 9140 32bf
00000250: 4808 6abf 1ace 4bbf d33e 3abf 52b0 c9bd
00000260: 6756 a4bf 4bbb cf3c 7060 693e e89f 01c0
00000270: 0b9c 06be f937 8bbe 6018 7cbe 7169 d0bd
00000280: 41ab e13e 7b68 74bf 1159 df3f cb2f 813f
00000290: b377 69bf 598a 523f d015 e13d 80bf 593c
000002a0: e183 b2bf 4009 1d3f dedb 4cbe aac3 03c0
000002b0: 007b 99be 2a85 ea3d 6fe4 a23e 6214 0bbf
000002c0: 91a5 a2be 248e 7abf ea3f 23bf 4ff2 f63e
000002d0: 683b efbc 872a 99bd 3cc6 a53f fc38 e0be
000002e0: e605 4c3f a7d5 32bf 497e b7be 9282 0cbf
000002f0: 4a56 86bf 875d 23bf 4186 403f af3d 63bf
00000300: 2c5a 3c3e 76cd 3e3e 4a85 40be 5649 e4be
00000310: 293a 2cbf 095f 1ebf f421 1abf 091b 963f
00000320: 012a 1e3f 20b7 22c0 33ac d23f 00df 01bf
00000330: 45f8 8f3f 5b89 3ebf 9f27 473e 64a2 813e
00000340: e7f0 d53e 8480 1bbf e596 153f 66c5 26be
00000350: 2165 1dc0 2507 21bf 6a13 753e 284f 37c0
00000360: 6992 093f 6ef0 dd3f 6039 c43e 66b1 cfbe
00000370: 58c3 433c 3f79 c33f 83da 92bc 8002 5abf
00000380: 57f4 65be c0ba 103f 4c74 81bf 2189 f0bc
00000390: 4a87 f7bf 8a29 97be cedc 843f f1db 013f
000003a0: 9719 e2bf 9549 b2bd 70b2 3cbf 46c7 b0bf
000003b0: dc87 2f3f 1c1e 8f3f 3b2a 97bf f623 073f
000003c0: 6ce3 e73f 4b09 3fbf 21e0 353f db95 963f
000003d0: ccb3 f6bc 121e 99be 0b6d cf3d 3580 00c0
000003e0: 7562 58bf e076 39bf 6250 123d 3b14 9cbe
000003f0: 4245 3cbf 9556 73be ff9b d9be cbc3 bebf

linear_1.weight f4 [100, 24]
0.09804126 -0.007075711 -0.14693913 0.0132699525 0.0064761983 -0.1446068 -0.07511375 0.26036632
-0.0596102 0.18229696 -0.10610098 0.050856512 -0.1278145 -0.06699886 0.082476474 0.15136619
-0.003739142 0.06196053 -0.044895474 -0.11687302 0.021490071 -0.0038900522 0.022862252 -0.031181343
-0.013719549 -0.16814806 -0.049077615 0.12875262 0.08054529 0.059684575 -0.11793344 0.045532893
-0.09216165 0.32264546 -0.19973786 0.23272987 0.15805165 0.10321239 0.01272661 0.19686742
-0.08901062 0.15954289 0.15012987 -0.49087316 0.1874573 -0.16173764 -0.028700482 -0.22495286
-0.8170724 0.5024106 0.25629845 0.97103554 -0.75821394 0.70376605 0.4441861 -0.25110766
-0.12565942 -0.19177903 -0.27612412 -0.15381326 -0.5075613 -0.30831525 0.64383924 -0.9268586
0.298612 0.19530615 0.05761729 -0.15403333 0.739012 0.04508305 -0.7898713 0.2619848
-0.05167651 0.2741936 -0.16310714 0.13904338 -0.5270088 0.39473194 -0.5992532 -0.037148394
-0.0636918 0.11107446 0.27653262 0.4165009 -0.28216058 0.41514912 -0.005917396 0.49752507
0.039180297 -0.34514734 -0.09555345 0.2799754 -0.29493338 -0.06884828 -0.8131147 0.1628979
-0.06637457 0.012804799 -0.004324916 0.23725891 0.3066155 0.19477117 0.2763214 0.3365279
-0.8128691 -0.17030728 -0.008612736 -0.112996824 0.065324225 0.9314382 -0.78270596 -0.5221429
-0.09397499 -0.5983981 -0.5866229 0.37196162 0.4007478 -0.75868195 -0.3699651 0.020230178
0.31072167 0.30257532 -0.10180612 0.26083153 -0.029081244 -0.16192192 0.4209358 -0.18704356
-0.035620697 0.7668257 -0.09433941 0.24893308 0.40788075 -0.08482162 0.09353827 0.34360105
-0.5595635 0.39892697 0.34210193 -0.44559395 -0.009494602 0.14113645 -0.09363044 0.24732405
0.20579855 0.00056526694 -0.27986687 -0.037698444 0.018162753 0.08449552 0.19477002 0.12521069
0.058783967 0.5546215 0.0041952366 0.23805308 0.028041484 0.3317892 -0.13320942 0.16524231
-0.35056028 0.0065647042 -0.21237026 -0.40442666 0.2763742 -0.22065668 -0.17997517 0.05522253
0.10755155 0.035335314 -0.20865978 0.083231606 0.07807504 0.0015681784 -0.17530221 0.32339835
-0.18446362 0.3906801 -0.010703161 0.24451888 0.16361031 0.18381798 -0.10445094 0.10871437
-0.28091314 0.12113186 -0.10536718 -0.52819765 0.0052988795 -0.00949516 0.05342106 0.21163864
-0.6594751 -0.36850712 -0.14271572 0.4202198 -0.06750822 0.8830634 1.0412638 -0.34675738
-0.13555951 0.3137438 -0.62126136 -0.54924726 -0.055046167 0.3085454 -0.056665145 -0.114569016
-0.012675431 -0.13459286 -0.8985293 1.5783938 -0.13133869 -0.012134442 0.21573097 0.02883552
-0.43024373 0.38816735 0.5141927 0.17053942 0.4874816 -0.56917024 0.042939283 -0.21597485
-0.41460755 -0.18921258 -0.19276524 0.5113453 -0.30881554 0.19700664 0.25489098 -0.40179166
0.43198222 0.49254835 -0.59544575 0.33402374 -0.04233366 -0.4393747 0.27032515 -0.019023212
0.04452384 0.037004232 -0.16138391 0.10499448 -0.017166262 0.12693433 0.05163908 0.11880644
-0.016702594 0.22326912 0.013536834 -0.08036123 0.032651234 0.096984364 -0.08340433 0.05482731
00000000: dbc9 c83d 5edb e7bb 3677 16be 376a 593c
00000010: 4a36 d43b ce13 14be 3dd5 99bd bc4e 853e
00000020: d329 74bd 0eac 3a3e 784b d9bd eb4e 503d
00000030: cee1 02be b336 89bd 6de9 a83d bdff 1a3e
00000040: 650c 75bb 53ca 7d3d 51e4 37bd 1f5b efbd
00000050: f20b b03c 3ff0 7ebb 9e49 bb3c 0470 ffbc
00000060: f6c7 60bc 012f 2cbe 9c05 49bd bad7 033e
00000070: eef4 a43d d077 743d 1687 f1bd b380 3a3d
00000080: 3fbf bcbd c931 a53e 1588 4cbe bd50 6e3e
00000090: 4bd8 213e 0461 d33d 4583 503c 9d97 493e
000000a0: 334b b6bd 365f 233e a5bb 193e ba53 fbbe
000000b0: cef4 3f3e 8d9e 25be 461d ebbc 0b5a 66be
000000c0: a82b 51bf fb9d 003f 8d39 833e c995 783f
000000d0: 4f1a 42bf 032a 343f 5c6c e33e 2f91 80be
000000e0: ddac 00be b961 44be 2460 8dbe 3981 1dbe
000000f0: 8aef 01bf 7fdb 9dbe a6d2 243f 9b46 6dbf
00000100: ace3 983e 56fe 473e 1c00 6c3d eaba 1dbe
00000110: e42f 3d3f 01a9 383d 0135 4abf df22 863e
00000120: c0aa 53bd 1b63 8c3e 8f05 27be 6361 0e3e
00000130: 0cea 06bf 4e1a ca3e a868 19bf ea28 18bd
00000140: d970 82bd 027b e33d af95 8d3e 9b3f d53e
00000150: 5a77 90be 6d8e d43e b7e6 c1bb 9bbb fe3e
00000160: 857b 203d 27b7 b0be 87b1 c3bd f058 8f3e
00000170: 8201 97be 5400 8dbd 4928 50bf b5ce 263e
00000180: 64ef 87bd 38cb 513c 06b8 8dbb 00f4 723e
00000190: b5fc 9c3e 1872 473e 007a 8d3e 634d ac3e
000001a0: 3018 50bf 0865 2ebe 6f1c 0dbc e16a e7bd
000001b0: b5c8 853d bc72 6e3f 6b5f 48bf 28ab 05bf
000001c0: f675 c0bd 9e30 19bf eb2c 16bf c171 be3e
000001d0: d12e cd3e fb38 42bf 116c bdbe c2b9 a53c
000001e0: e916 9f3e 27eb 9a3e ba7f d0bd b68b 853e
000001f0: ca3b eebc dcce 25be e684 d73e 5988 3fbe
00000200: 02e7 11bd b04e 443f 0535 c1bd 50e8 7e3e
00000210: bfd5 d03e f5b6 adbd fe90 bf3d 7aec af3e
00000220: 8e3f 0fbf 2840 cc3e fc27 af3e e424 e4be
00000230: 3f8f 1bbc 1386 103e 51c1 bfbd 8442 7d3e
00000240: dbbc 523e 6c2e 143a b64a 8fbe af69 1abd
00000250: 0eca 943c fd0b ad3d cb71 473e 3b37 003e
00000260: 75c7 703d adfb 0d3f 3278 893b 30c4 733e
00000270: 41b7 e53c 46e0 a93e 0d68 08be 4835 293e
00000280: a37c b3be bb1c d73b 9777 59be 0311 cfbe
00000290: eb80 8d3e d3f3 61be 694b 38be 0531 623d
000002a0: fd43 dc3d c3bb 103d e9aa 55be 5575 aa3d
000002b0: cee5 9f3d 568b cd3a 6c82 33be 7894 a53e
000002c0: 08e4 3cbe 3907 c83e 505c 2fbc 2863 7a3e
000002d0: 7689 273e c83a 3c3e 60ea d5bd a4a5 de3d
000002e0: d9d3 8fbe fb13 f83d c0ca d7bd f637 07bf
000002f0: 39a2 ad3b 9691 1bbc 0bd0 5a3d cdb7 583e
00000300: 5cd3 28bf f7ac bcbe 1224 12be 0d27 d73e
00000310: c041 8abd 7110 623f 2248 853f 2f8a b1be
00000320: 1dd0 0abe 07a3 a03e fc0a 1fbf 789b 0cbf
00000330: 1778 61bd aaf9 9d3e b619 68bd 29a3 eabd
00000340: 9cac 4fbc b6d2 09be 0406 66bf cf08 ca3f
00000350: a67d 06be 8acf 46bc 94e8 5c3e 7838 ec3c
00000360: e848 dcbe dfbd c63e 22a2 033f e3a1 2e3e
00000370: 3097 f93e 24b5 11bf 1ae1 2f3d 8328 5dbe
00000380: 7147 d4be f1c0 41be 4064 45be 87e7 023f
00000390: 121d 9ebe 1cbc 493e 1281 823e a3b7 cdbe
000003a0: c62c dd3e 4c2f fc3e 226f 18bf 2905 ab3e
000003b0: 0f66 2dbd b8f5 e0be 0f68 8a3e 91d6 9bbc
000003c0: a15e 363d c091 173d d341 25be 5907 d73d
000003d0: 43a0 8cbc 13fb 013e 8083 533d ca50 f33d
000003e0: e1d3 88bc a9a0 643e 99c9 5d3c 6e94 a4bd
000003f0: 4dbd 053d bd9f c63d e4cf aabd 9a92 603d

linear_1.bias f4 [100]
-0.183554 -0.48422214 0.08960855 -0.21226144 0.005810932 -0.60642374 -0.6588411 -0.73537326
0.64460796 0.56164145 -0.4485567 -0.024643183 0.15838341 -0.019897081 -0.1676315 -0.5352208
0.003184336 0.56912017 -0.6022002 -0.9317532 0.33954477 -0.74982995 1.4473989 -0.34913713
-0.5130168 -0.21927917 -0.51775956 -0.42100805 -0.34554464 -0.123735204 -0.45460483 0.33437926
-0.6248939 0.4832248 -0.18790941 1.5332522 -0.337398 1.6050918 -0.5654154 -0.21530153
-0.467098 -0.42121533 -0.58014673 -0.47488168 -0.2758881 -0.04799489 0.15787195 -0.79426706
-0.35548767 -0.5953448 -0.5154313 -0.5408717 -0.46121922 -0.59848094 -0.5013093 0.48568732
-0.69753057 -0.42349696 -0.67876726 0.871223 -0.653463 -0.62209815 1.5598735 -0.7634895
-0.7184225 0.27341446 -0.36022365 0.44189402 0.6148377 -0.8700509 -0.36963668 -0.589974
1.1098142 -0.50848997 0.6502608 -0.30899397 -0.39290538 1.0335156 0.22227566 -0.08972844
-0.52866894 -0.074017026 1.8450018 0.6797808 -0.4664284 -0.6441771 -0.4249484 -0.6995727
-0.43245614 0.28035137 -0.13124326 0.27436313 1.0646175 -0.5386811 -0.80995595 -0.5728399
-0.48001164 -0.73522687 0.7280389 0.9395687
00000000: 94f5 3bbe f7eb f7be b084 b73d 105b 59be
00000010: a169 be3b 963e 1bbf cfa9 28bf 6c41 3cbf
00000020: 0705 253f bcc7 0f3f 39a9 e5be 80e0 c9bc
00000030: 432f 223e 34ff a2bc 98a7 2bbe 3b04 09bf
00000040: 4bb0 503b dcb1 113f cb29 1abf 6187 6ebf
00000050: d0d8 ad3e dbf4 3fbf 5e44 b93f 1ac2 b2be
00000060: 1255 03bf b88a 60be e48b 04bf 5e8e d7be
00000070: 3aeb b0be e268 fdbd f7c1 e8be c233 ab3e
00000080: 0cf9 1fbf 3e69 f73e 536b 40be 9c41 c43f
00000090: 6ebf acbe a673 cd3f 10bf 10bf 0178 5cbe
000000a0: 7827 efbe 89a9 d7be 7f84 14bf b123 f3be
000000b0: 3441 8dbe 4a96 44bd 2fa9 213e 1655 4bbf
000000c0: 7b02 b6be 8468 18bf 4ef3 03bf 9176 0abf
000000d0: ed24 ecbe 0c36 19bf ce55 00bf 02ac f83e
000000e0: 5d91 32bf 98d4 d8be b1c3 2dbf 7808 5f3f
000000f0: 5a49 27bf d341 1fbf efa9 c73f 0c74 43bf
00000100: 89ea 37bf fbfc 8b3e 3c6f b8be ef3f e23e
00000110: 0166 1d3f a8bb 5ebf 0541 bdbe 8908 17bf
00000120: 640e 8e3f 662c 02bf 7e77 263f 7534 9ebe
00000130: e52a c9be 3d4a 843f 3b9c 633e 8bc3 b7bd
00000140: d956 07bf 3d96 97bd 0529 ec3f 1d06 2e3f
00000150: b4cf eebe cae8 24bf d692 d9be 3217 33bf
00000160: e46a ddbe 378a 8f3e a264 06be 5379 8c3e
00000170: 6345 883f 01e7 09bf 4659 4fbf a3a5 12bf
00000180: 16c4 f5be d437 3cbf c260 3a3f 9387 703f

linear_2.weight f4 [50, 100]
0.032842953 -0.11414059 -0.21098697 -0.3140624 -0.35874128 -0.0977902 0.12779795 0.106949985
-0.51545244 -0.4469013 -0.06354456 -0.26961172 0.05083678 -0.020799803 0.074339576 0.13844652
-0.17334269 -0.3298227 -0.1401456 -0.23766431 0.05614676 0.1950545 -0.35503933 -0.0957677
0.1889786 -0.28797507 -0.005896618 -0.12194357 0.1217733 -0.36705536 0.31518108 -0.60166603
-0.18763614 -0.4766023 -0.123678215 -0.24564184 -0.16655889 -0.70316964 0.04109716 -0.019500893
-0.0050712423 -0.17071943 0.016449524 -0.020161947 0.012213271 0.05075157 0.14904812 -0.13139853
0.039345235 0.017141508 -0.11935549 -0.1175028 -0.2472205 -0.00055879913 -0.3035658 -0.44346416
-0.099991694 -0.056177244 -0.16461791 -0.3032124 0.029662652 0.114900775 -0.5057909 0.06309606
-0.3155188 -0.15538193 0.079130046 -0.03054785 -0.6018612 0.015621528 0.21995753 -0.18497184
-0.3614831 -0.11614171 -0.2371358 0.030834364 0.059733316 -0.25000244 -0.37887436 0.026952203
-0.15562218 -0.29049054 -0.21628442 -0.047947604 -0.39746958 -0.19488288 0.04805591 -0.24314526
0.027568975 -0.6579507 -0.24534369 -0.21532783 -0.3763468 0.08230667 -0.20306765 -0.067835756
-0.031324454 -0.559296 -0.29838857 0.036868166 0.041601688 -0.06545846 -0.29553986 -0.22991134
-0.4765574 -0.37906238 0.008858541 -0.09879633 -0.28964588 -0.45814347 0.11628925 0.014525959
-0.41805127 -0.30262864 -0.09565027 0.022276323 -0.23519856 -0.32910872 -0.036941458 -0.16493249
-0.22112797 -0.008310048 -0.6620064 -0.02852125 -0.030078975 -0.0729652 -0.020039521 -0.041744497
-0.08569957 -0.09873771 -0.2237407 -0.2231241 -0.1795073 -0.21930623 -0.033768013 -0.28620857
-0.14746611 -0.022291765 -0.13434538 -0.017154291 -0.104007065 0.09877989 -0.23001905 -0.13301441
-0.026374828 -0.31089002 -0.17918454 -0.094816476 0.04598199 -0.15016595 0.15114745 -0.035920598
-0.022212408 0.101733215 -0.21111824 -0.31155103 0.009173976 0.003824814 -0.30227575 -0.008143068
-0.108506516 -0.10400006 -0.21201363 0.076065965 -0.1079259 -0.19793218 -0.13750476 -0.22039853
-0.4856663 0.036320727 -0.04948368 -0.100745305 -0.075922735 0.10047402 -0.5719942 -0.04896843
0.011295454 -0.39165422 -0.6065842 0.02085886 -0.0809197 0.05830464 0.006112849 -0.4145683
-0.22734416 -0.1341173 -0.16792193 -0.010441506 -0.013461482 -0.33453324 -0.028788982 -0.092702635
-0.4054712 0.098177806 -0.26341105 -0.10281984 -0.10201674 -0.12213527 -0.23154749 -0.26466978
-0.046612382 -0.013238328 -0.05742715 -0.030939342 0.00082900707 -0.1051538 -0.10887943 -0.048549544
-0.17860427 -0.0059286933 0.054118842 -0.17593946 -0.12595142 -0.035877932 -0.008354178 -0.020566266
0.005036448 -0.1063701 -0.086966425 -0.1427794 -0.04687896 -0.05751838 -0.12855078 0.06612153
-0.013651913 -0.18536493 -0.13820395 -0.049369294 -0.12995568 -0.17676553 -0.1480419 -0.08946166
-0.11852821 -0.14263088 -0.14828104 -0.06236583 0.018517967 -0.05898527 -0.08811258 -0.11053915
0.039727487 -0.2103921 -0.045363944 -0.05628183 -0.034663625 -0.012928117 -0.060939092 -0.27241853
-0.014967524 -0.023458982 -0.084648184 -0.05228356 -0.061462745 -0.023219561 -0.010936698 -0.104185686
00000000: 5586 063d 8bc2 e9bd f80c 58be c9cc a0be
00000010: f0ac b7be 3a46 c8bd 77dd 023e 9808 db3d
00000020: b1f4 03bf 3fd0 e4be a623 82bd 8c0a 8abe
00000030: 3a3a 503d 5964 aabc 593f 983d edc4 0d3e
00000040: bf80 31be 85de a8be 5482 0fbe 465e 73be
00000050: 25fa 653d 5ebc 473e b7c7 b5be db21 c4bd
00000060: 9b83 413e 7871 93be 6b38 c1bb 8dbd f9bd
00000070: 4864 f93d aeee bbbe 6a5f a13e c906 1abf
00000080: b023 40be 3705 f4be 014b fdbd 8989 7bbe
00000090: 6a8e 2abe ed02 34bf 7f55 283d 56c0 9fbc
000000a0: aa2c a6bb 13d1 2ebe 27c1 863c ab2a a5bc
000000b0: 2c1a 483c e1e0 4f3d 12a0 183e 568d 06be
000000c0: 7828 213d 596c 8c3c a770 f4bd 4fa5 f0bd
000000d0: 5f27 7dbe 607c 12ba fa6c 9bbe bc0d e3be
000000e0: 72c8 ccbd 1c1a 66bd 9991 28be a83e 9bbe
000000f0: 17ff f23c 1951 eb3d 837b 01bf 8238 813d
00000100: ae8b a1be 711c 1fbe ef0e a23d 7c3f fabc
00000110: 9313 1abf 70f1 7f3c 8c3c 613e 4269 3dbe
00000120: 5014 b9be b4db edbd bad3 72be 5998 fc3c
00000130: ecaa 743d 5200 80be d2fb c1be deca dc3c
00000140: 6c5b 1fbe 2dbb 94be aa79 5dbe b564 44bd
00000150: 2281 cbbe 618f 47be 46d6 443d 12fb 78be
00000160: 55d8 e13c 756f 28bf 603b 7bbe e67e 5cbe
00000170: 87b0 c0be 6690 a83d f7f0 4fbe 79ed 8abd
00000180: 124e 00bd 062e 0fbf 63c6 98be 1303 173d
00000190: 8866 2a3d 160f 86bd 0051 97be e16d 6bbe
000001a0: 55ff f3be 7714 c2be 6a23 113c bb55 cabd
000001b0: 774c 94be c891 eabe 0f29 ee3d 4afe 6d3c
000001c0: d10a d6be 24f2 9abe 4ae4 c3bd d67c b63c
000001d0: e4d7 70be f080 a8be ed4f 17bd 10e4 28be
000001e0: 5f6f 62be de26 08bc 4079 29bf 65a5 e9bc
000001f0: 2f68 f6bc c76e 95bd ec29 a4bc 47fc 2abd
00000200: 4283 afbd ff36 cabd 481c 65be a57a 64be
00000210: c3d0 37be d091 60be 5450 0abd ee89 92be
00000220: 5b01 17be 389d b6bc d691 09be 2887 8cbc
00000230: a801 d5bd 1c4d ca3d 1d8a 6bbe ee34 08be
00000240: 0610 d8bc fa2c 9fbe 277c 37be 242f c2bd
00000250: 9c57 3c3d 1ac5 19be 66c6 1a3e 7a21 13bd
00000260: ccf6 b5bc 8159 d03d 612f 58be 9e83 9fbe
00000270: 724e 163c bba9 7a3b e3c3 9abe 816a 05bc
00000280: aa38 debd fcfd d4bd 1a1a 59be 79c8 9b3d
00000290: 4108 ddbd bcae 4abe 0cce 0cbe 27b0 61be
000002a0: 41a9 f8be 0bc5 143d 66af 4abd 8e53 cebd
000002b0: 617d 9bbd 53c5 cd3d 366e 12bf 1f93 48bd
000002c0: 9110 393c e786 c8be 1a49 1bbf 33e0 aa3c
000002d0: 3ab9 a5bd d9d0 6e3d 4b4e c83b 4c42 d4be
000002e0: e8cc 68be 0c56 09be baf3 2bbe da12 2bbc
000002f0: 8c8d 5cbc f147 abbe dfd6 ebbc e1da bdbd
00000300: ec99 cfbe 7211 c93d d0dd 86be 3593 d2bd
00000310: 27ee d0bd 0e22 fabd c91a 6dbe cc82 87be
00000320: a0ec 3ebd 92e5 58bc bb38 6bbd 8174 fdbc
00000330: b951 593a e05a d7bd 2efc debd e3db 46bd
00000340: 0ae4 36be 7c45 c2bb b8ab 5d3d 7929 34be
00000350: 69f9 00be bdf4 12bd f6df 08bc 967a a8bc
00000360: ca08 a53b 91d8 d9bd 741b b2bd c334 12be
00000370: 2704 40bd 6598 6bbd d1a2 03be ba6a 873d
00000380: 46ac 5fbc 4ed0 3dbe 5685 0dbe 7537 4abd
00000390: 1a13 05be 0602 35be 4c98 17be ad37 b7bd
000003a0: ebbe f2bd d40d 12be fcd6 17be 5073 7fbd
000003b0: feb2 973c 8a9a 71bd 5e74 b4bd 5a62 e2bd
000003c0: 4ab9 223d 0771 57be 8bcf 39bd c787 66bd
000003d0: 72fb 0dbd 74d0 53bc 459b 79bd 717a 8bbe
000003e0: 593a 75bc 0d2d c0bc 075c adbd 4927 56bd
000003f0: 5cc0 7bbd f336 bebc d62f 33bc 4e5f d5bd

linear_2.bias f4 [50]
-0.8289372 -0.3293201 -0.40547988 -0.69072664 -0.5181159 -0.46326783 -0.5479022 -0.46865848
-0.33818877 -0.66960394 -0.52208436 -0.5833589 -0.4868508 -0.35755637 -0.5450217 -0.31774664
-0.6674405 -0.22385386 -0.6695681 -0.5953869 -0.4182522 -0.54270226 -0.5546264 -0.5025814
-0.6442987 -0.5450165 -0.21467772 -0.61417234 -0.43892393 -0.5359879 -0.50239056 -0.43873927
-0.5287859 -0.30218455 -0.37866774 -0.34044135 -0.4275375 -0.5681426 -0.25461861 -0.50844723
-0.78927857 -0.244014 -0.4223161 -0.7138561 -0.4106493 -0.52413505 -0.220608 -0.48536068
-0.435335 -0.4155357
00000000: 3a35 54bf a59c a8be 0f9b cfbe 76d3 30bf
00000010: 3ea3 04bf 7131 edbe 5243 0cbf 01f4 efbe
00000020: 1427 adbe 2a6b 2bbf 52a7 05bf 0257 15bf
00000030: 8244 f9be a111 b7be 8b86 0bbf b0af a2be
00000040: 61dd 2abf f239 65be d168 2bbf 476b 18bf
00000050: 2725 d6be 89ee 0abf fffb 0dbf 2da9 00bf
00000060: c2f0 24bf 3486 0bbf 7ad4 5bbe 663a 1dbf
00000070: a3ba e0be 8136 09bf ab9c 00bf 6fa2 e0be
00000080: 835e 07bf efb7 9abe bde0 c1be 544e aebe
00000090: 32e6 dabe cb71 11bf 5f5d 82be 9929 02bf
000000a0: 290e 4abf cede 79be d139 d8be 46bf 36bf
000000b0: a040 d2be b72d 06bf 10e7 61be 3281 f8be
000000c0: 3be4 debe 18c1 d4be

output.weight f4 [1, 74]
0.041473273 0.013208892 0.0034354904 0.0876143 -0.023622923 0.0053702234 0.05421498 0.058136977
0.053397525 0.000879692 0.04619274 -0.07114192 -0.07724696 0.01236727 -0.016875334 0.08846487
0.007242782 -0.04504792 0.07986632 -0.0034855122 -0.04555557 -0.008377656 -0.021541268 -0.048540708
0.0071453042 0.06016129 -0.012157844 0.0015739403 -0.009420016 0.04318148 0.028668582 -0.04175916
0.05281942 0.14838818 -0.015984485 0.024961585 -0.014104962 -0.020844525 0.20064062 -0.023687804
0.036201697 0.031535745 -0.073128864 -0.046600666 -0.006347101 -0.027836772 -0.009779679 0.015553199
0.019447252 0.01818978 0.0017409831 -0.0021403192 0.0024514224 -0.0021085711 -3.5870924e-06 -0.000114666145
0.06485248 0.09166895 0.11284634 0.071357235 0.05408941 0.12163501 0.06594758 0.047992196
0.061836023 0.056568734 0.15840726 0.019444266 0.053715017 0.095661744 0.052556686 0.13372709
0.23682964 0.03793717
00000000: e1df 293d 1c6a 583c f725 613b 206f b33d
00000010: dc84 c1bc b3f8 af3b 8710 5e3d 0a21 6e3d
00000020: 5db7 5a3d 219b 663a 9934 3d3d dbb2 91bd
00000030: a733 9ebd 17a0 4a3c 243e 8abc 122d b53d
00000040: dc54 ed3b 2b84 38bd f490 a33d 316d 64bb
00000050: 7a98 3abd 7042 09bc 5077 b0bc 9fd2 46bd
00000060: 2823 ea3b af6b 763d b231 47bc ac4c ce3a
00000070: 6956 1abc 10df 303d 60da ea3c a70b 2bbd
00000080: 2d59 583d 12f3 173e e5f1 82bc 3d7c cc3c
00000090: 8018 67bc 23c2 aabc bc74 4d3e ed0c c2bc
000000a0: 3b48 143d a02b 013d 96c4 95bd 57e0 3ebd
000000b0: 58fb cfbb f109 e4bc f23a 20bc d8d2 7e3c
000000c0: d84f 9f3c bc02 953c b331 e43a 9944 0cbb
000000d0: 0ba8 203b f42f 0abb c7b9 70b6 eb78 f0b8
000000e0: 61d1 843d eebc bb3d fb1b e73d be23 923d
000000f0: db8c 5d3d c71b f93d 860f 873d 7793 443d
00000100: c547 7d3d 9eb4 673d 8335 223e 9549 9f3c
00000110: 4704 5c3d 4eea c33d ae45 573d c1ef 083e
00000120: 7883 723e 0264 1b3d
